…
wandb: Use W&B Weave for improved LLM call tracing. Install Weave with `pip install weave` then add `import weave` to the top of your script.
wandb: Use W&B Weave for improved LLM call tracing. Install Weave with `pip install weave` then add `import weave` to the top of your script.
wandb: For more information, check out the docs at: https://weave-docs.wandb.ai/
wandb: For more information, check out the docs at: https://weave-docs.wandb.ai/

============= Model Summary =============

============= Model Summary =============
CDP (
  ModuleDict(
    (policy): KDenoiser(
      (inner_model): DiffusionTransformer(
        (tok_emb): Linear(in_features=15, out_features=240, bias=True)
        (goal_emb): Linear(in_features=1, out_features=240, bias=True)
        (drop): Dropout(p=0.0, inplace=False)
        (blocks): Sequential(
          (0): Block(
            (ln1): LayerNorm((240,), eps=1e-05, elementwise_affine=True)
            (ln2): LayerNorm((240,), eps=1e-05, elementwise_affine=True)
            (attn): SelfAttention(
              (key): Linear(in_features=240, out_features=240, bias=True)
              (query): Linear(in_features=240, out_features=240, bias=True)
              (value): Linear(in_features=240, out_features=240, bias=True)
              (attn_drop): Dropout(p=0.05, inplace=False)
              (resid_drop): Dropout(p=0.05, inplace=False)
              (proj): Linear(in_features=240, out_features=240, bias=True)
            )
            (mlp): Sequential(
              (0): Linear(in_features=240, out_features=960, bias=True)
              (1): GELU(approximate='none')
              (2): Linear(in_features=960, out_features=240, bias=True)
              (3): Dropout(p=0.05, inplace=False)
            )
          )
          (1): Block(
            (ln1): LayerNorm((240,), eps=1e-05, elementwise_affine=True)
            (ln2): LayerNorm((240,), eps=1e-05, elementwise_affine=True)
            (attn): SelfAttention(
              (key): Linear(in_features=240, out_features=240, bias=True)
              (query): Linear(in_features=240, out_features=240, bias=True)
              (value): Linear(in_features=240, out_features=240, bias=True)
              (attn_drop): Dropout(p=0.05, inplace=False)
              (resid_drop): Dropout(p=0.05, inplace=False)
              (proj): Linear(in_features=240, out_features=240, bias=True)
            )
            (mlp): Sequential(
              (0): Linear(in_features=240, out_features=960, bias=True)
              (1): GELU(approximate='none')
              (2): Linear(in_features=960, out_features=240, bias=True)
              (3): Dropout(p=0.05, inplace=False)
            )
          )
          (2): Block(
            (ln1): LayerNorm((240,), eps=1e-05, elementwise_affine=True)
            (ln2): LayerNorm((240,), eps=1e-05, elementwise_affine=True)
            (attn): SelfAttention(
              (key): Linear(in_features=240, out_features=240, bias=True)
              (query): Linear(in_features=240, out_features=240, bias=True)
              (value): Linear(in_features=240, out_features=240, bias=True)
              (attn_drop): Dropout(p=0.05, inplace=False)
              (resid_drop): Dropout(p=0.05, inplace=False)
              (proj): Linear(in_features=240, out_features=240, bias=True)
            )
            (mlp): Sequential(
              (0): Linear(in_features=240, out_features=960, bias=True)
              (1): GELU(approximate='none')
              (2): Linear(in_features=960, out_features=240, bias=True)
              (3): Dropout(p=0.05, inplace=False)
            )
          )
          (3): Block(
            (ln1): LayerNorm((240,), eps=1e-05, elementwise_affine=True)
            (ln2): LayerNorm((240,), eps=1e-05, elementwise_affine=True)
            (attn): SelfAttention(
              (key): Linear(in_features=240, out_features=240, bias=True)
              (query): Linear(in_features=240, out_features=240, bias=True)
              (value): Linear(in_features=240, out_features=240, bias=True)
              (attn_drop): Dropout(p=0.05, inplace=False)
              (resid_drop): Dropout(p=0.05, inplace=False)
              (proj): Linear(in_features=240, out_features=240, bias=True)
            )
            (mlp): Sequential(
              (0): Linear(in_features=240, out_features=960, bias=True)
              (1): GELU(approximate='none')
              (2): Linear(in_features=960, out_features=240, bias=True)
              (3): Dropout(p=0.05, inplace=False)
            )
          )
        )
        (ln_f): LayerNorm((240,), eps=1e-05, elementwise_affine=True)
        (sigma_emb): Linear(in_features=1, out_features=240, bias=True)
        (action_emb): Linear(in_features=7, out_features=240, bias=True)
        (action_pred): Linear(in_features=240, out_features=7, bias=True)
      )
    )
    (ema_policy): KDenoiser(
      (inner_model): DiffusionTransformer(
        (tok_emb): Linear(in_features=15, out_features=240, bias=True)
        (goal_emb): Linear(in_features=1, out_features=240, bias=True)
        (drop): Dropout(p=0.0, inplace=False)
        (blocks): Sequential(
          (0): Block(
            (ln1): LayerNorm((240,), eps=1e-05, elementwise_affine=True)
            (ln2): LayerNorm((240,), eps=1e-05, elementwise_affine=True)
            (attn): SelfAttention(
              (key): Linear(in_features=240, out_features=240, bias=True)
              (query): Linear(in_features=240, out_features=240, bias=True)
              (value): Linear(in_features=240, out_features=240, bias=True)
              (attn_drop): Dropout(p=0.05, inplace=False)
              (resid_drop): Dropout(p=0.05, inplace=False)
              (proj): Linear(in_features=240, out_features=240, bias=True)
            )
            (mlp): Sequential(
              (0): Linear(in_features=240, out_features=960, bias=True)
              (1): GELU(approximate='none')
              (2): Linear(in_features=960, out_features=240, bias=True)
              (3): Dropout(p=0.05, inplace=False)
            )
          )
          (1): Block(
            (ln1): LayerNorm((240,), eps=1e-05, elementwise_affine=True)
            (ln2): LayerNorm((240,), eps=1e-05, elementwise_affine=True)
            (attn): SelfAttention(
              (key): Linear(in_features=240, out_features=240, bias=True)
              (query): Linear(in_features=240, out_features=240, bias=True)
              (value): Linear(in_features=240, out_features=240, bias=True)
              (attn_drop): Dropout(p=0.05, inplace=False)
              (resid_drop): Dropout(p=0.05, inplace=False)
              (proj): Linear(in_features=240, out_features=240, bias=True)
            )
            (mlp): Sequential(
              (0): Linear(in_features=240, out_features=960, bias=True)
              (1): GELU(approximate='none')
              (2): Linear(in_features=960, out_features=240, bias=True)
              (3): Dropout(p=0.05, inplace=False)
            )
          )
          (2): Block(
            (ln1): LayerNorm((240,), eps=1e-05, elementwise_affine=True)
            (ln2): LayerNorm((240,), eps=1e-05, elementwise_affine=True)
            (attn): SelfAttention(
              (key): Linear(in_features=240, out_features=240, bias=True)
              (query): Linear(in_features=240, out_features=240, bias=True)
              (value): Linear(in_features=240, out_features=240, bias=True)
              (attn_drop): Dropout(p=0.05, inplace=False)
              (resid_drop): Dropout(p=0.05, inplace=False)
              (proj): Linear(in_features=240, out_features=240, bias=True)
            )
            (mlp): Sequential(
              (0): Linear(in_features=240, out_features=960, bias=True)
              (1): GELU(approximate='none')
              (2): Linear(in_features=960, out_features=240, bias=True)
              (3): Dropout(p=0.05, inplace=False)
            )
          )
          (3): Block(
            (ln1): LayerNorm((240,), eps=1e-05, elementwise_affine=True)
            (ln2): LayerNorm((240,), eps=1e-05, elementwise_affine=True)
            (attn): SelfAttention(
              (key): Linear(in_features=240, out_features=240, bias=True)
              (query): Linear(in_features=240, out_features=240, bias=True)
              (value): Linear(in_features=240, out_features=240, bias=True)
              (attn_drop): Dropout(p=0.05, inplace=False)
              (resid_drop): Dropout(p=0.05, inplace=False)
              (proj): Linear(in_features=240, out_features=240, bias=True)
            )
            (mlp): Sequential(
              (0): Linear(in_features=240, out_features=960, bias=True)
              (1): GELU(approximate='none')
              (2): Linear(in_features=960, out_features=240, bias=True)
              (3): Dropout(p=0.05, inplace=False)
            )
          )
        )
        (ln_f): LayerNorm((240,), eps=1e-05, elementwise_affine=True)
        (sigma_emb): Linear(in_features=1, out_features=240, bias=True)
        (action_emb): Linear(in_features=7, out_features=240, bias=True)
        (action_pred): Linear(in_features=240, out_features=7, bias=True)
      )
    )
  )
)
CDP (
  ModuleDict(
    (policy): KDenoiser(
      (inner_model): DiffusionTransformer(
        (tok_emb): Linear(in_features=15, out_features=240, bias=True)
        (goal_emb): Linear(in_features=1, out_features=240, bias=True)
        (drop): Dropout(p=0.0, inplace=False)
        (blocks): Sequential(
          (0): Block(
            (ln1): LayerNorm((240,), eps=1e-05, elementwise_affine=True)
            (ln2): LayerNorm((240,), eps=1e-05, elementwise_affine=True)
            (attn): SelfAttention(
              (key): Linear(in_features=240, out_features=240, bias=True)
              (query): Linear(in_features=240, out_features=240, bias=True)
              (value): Linear(in_features=240, out_features=240, bias=True)
              (attn_drop): Dropout(p=0.05, inplace=False)
              (resid_drop): Dropout(p=0.05, inplace=False)
              (proj): Linear(in_features=240, out_features=240, bias=True)
            )
            (mlp): Sequential(
              (0): Linear(in_features=240, out_features=960, bias=True)
              (1): GELU(approximate='none')
              (2): Linear(in_features=960, out_features=240, bias=True)
              (3): Dropout(p=0.05, inplace=False)
            )
          )
          (1): Block(
            (ln1): LayerNorm((240,), eps=1e-05, elementwise_affine=True)
            (ln2): LayerNorm((240,), eps=1e-05, elementwise_affine=True)
            (attn): SelfAttention(
              (key): Linear(in_features=240, out_features=240, bias=True)
              (query): Linear(in_features=240, out_features=240, bias=True)
              (value): Linear(in_features=240, out_features=240, bias=True)
              (attn_drop): Dropout(p=0.05, inplace=False)
              (resid_drop): Dropout(p=0.05, inplace=False)
              (proj): Linear(in_features=240, out_features=240, bias=True)
            )
            (mlp): Sequential(
              (0): Linear(in_features=240, out_features=960, bias=True)
              (1): GELU(approximate='none')
              (2): Linear(in_features=960, out_features=240, bias=True)
              (3): Dropout(p=0.05, inplace=False)
            )
          )
          (2): Block(
            (ln1): LayerNorm((240,), eps=1e-05, elementwise_affine=True)
            (ln2): LayerNorm((240,), eps=1e-05, elementwise_affine=True)
            (attn): SelfAttention(
              (key): Linear(in_features=240, out_features=240, bias=True)
              (query): Linear(in_features=240, out_features=240, bias=True)
              (value): Linear(in_features=240, out_features=240, bias=True)
              (attn_drop): Dropout(p=0.05, inplace=False)
              (resid_drop): Dropout(p=0.05, inplace=False)
              (proj): Linear(in_features=240, out_features=240, bias=True)
            )
            (mlp): Sequential(
              (0): Linear(in_features=240, out_features=960, bias=True)
              (1): GELU(approximate='none')
              (2): Linear(in_features=960, out_features=240, bias=True)
              (3): Dropout(p=0.05, inplace=False)
            )
          )
          (3): Block(
            (ln1): LayerNorm((240,), eps=1e-05, elementwise_affine=True)
            (ln2): LayerNorm((240,), eps=1e-05, elementwise_affine=True)
            (attn): SelfAttention(
              (key): Linear(in_features=240, out_features=240, bias=True)
              (query): Linear(in_features=240, out_features=240, bias=True)
              (value): Linear(in_features=240, out_features=240, bias=True)
              (attn_drop): Dropout(p=0.05, inplace=False)
              (resid_drop): Dropout(p=0.05, inplace=False)
              (proj): Linear(in_features=240, out_features=240, bias=True)
            )
            (mlp): Sequential(
              (0): Linear(in_features=240, out_features=960, bias=True)
              (1): GELU(approximate='none')
              (2): Linear(in_features=960, out_features=240, bias=True)
              (3): Dropout(p=0.05, inplace=False)
            )
          )
        )
        (ln_f): LayerNorm((240,), eps=1e-05, elementwise_affine=True)
        (sigma_emb): Linear(in_features=1, out_features=240, bias=True)
        (action_emb): Linear(in_features=7, out_features=240, bias=True)
        (action_pred): Linear(in_features=240, out_features=7, bias=True)
      )
    )
    (ema_policy): KDenoiser(
      (inner_model): DiffusionTransformer(
        (tok_emb): Linear(in_features=15, out_features=240, bias=True)
        (goal_emb): Linear(in_features=1, out_features=240, bias=True)
        (drop): Dropout(p=0.0, inplace=False)
        (blocks): Sequential(
          (0): Block(
            (ln1): LayerNorm((240,), eps=1e-05, elementwise_affine=True)
            (ln2): LayerNorm((240,), eps=1e-05, elementwise_affine=True)
            (attn): SelfAttention(
              (key): Linear(in_features=240, out_features=240, bias=True)
              (query): Linear(in_features=240, out_features=240, bias=True)
              (value): Linear(in_features=240, out_features=240, bias=True)
              (attn_drop): Dropout(p=0.05, inplace=False)
              (resid_drop): Dropout(p=0.05, inplace=False)
              (proj): Linear(in_features=240, out_features=240, bias=True)
            )
            (mlp): Sequential(
              (0): Linear(in_features=240, out_features=960, bias=True)
              (1): GELU(approximate='none')
              (2): Linear(in_features=960, out_features=240, bias=True)
              (3): Dropout(p=0.05, inplace=False)
            )
          )
          (1): Block(
            (ln1): LayerNorm((240,), eps=1e-05, elementwise_affine=True)
            (ln2): LayerNorm((240,), eps=1e-05, elementwise_affine=True)
            (attn): SelfAttention(
              (key): Linear(in_features=240, out_features=240, bias=True)
              (query): Linear(in_features=240, out_features=240, bias=True)
              (value): Linear(in_features=240, out_features=240, bias=True)
              (attn_drop): Dropout(p=0.05, inplace=False)
              (resid_drop): Dropout(p=0.05, inplace=False)
              (proj): Linear(in_features=240, out_features=240, bias=True)
            )
            (mlp): Sequential(
              (0): Linear(in_features=240, out_features=960, bias=True)
              (1): GELU(approximate='none')
              (2): Linear(in_features=960, out_features=240, bias=True)
              (3): Dropout(p=0.05, inplace=False)
            )
          )
          (2): Block(
            (ln1): LayerNorm((240,), eps=1e-05, elementwise_affine=True)
            (ln2): LayerNorm((240,), eps=1e-05, elementwise_affine=True)
            (attn): SelfAttention(
              (key): Linear(in_features=240, out_features=240, bias=True)
              (query): Linear(in_features=240, out_features=240, bias=True)
              (value): Linear(in_features=240, out_features=240, bias=True)
              (attn_drop): Dropout(p=0.05, inplace=False)
              (resid_drop): Dropout(p=0.05, inplace=False)
              (proj): Linear(in_features=240, out_features=240, bias=True)
            )
            (mlp): Sequential(
              (0): Linear(in_features=240, out_features=960, bias=True)
              (1): GELU(approximate='none')
              (2): Linear(in_features=960, out_features=240, bias=True)
              (3): Dropout(p=0.05, inplace=False)
            )
          )
          (3): Block(
            (ln1): LayerNorm((240,), eps=1e-05, elementwise_affine=True)
            (ln2): LayerNorm((240,), eps=1e-05, elementwise_affine=True)
            (attn): SelfAttention(
              (key): Linear(in_features=240, out_features=240, bias=True)
              (query): Linear(in_features=240, out_features=240, bias=True)
              (value): Linear(in_features=240, out_features=240, bias=True)
              (attn_drop): Dropout(p=0.05, inplace=False)
              (resid_drop): Dropout(p=0.05, inplace=False)
              (proj): Linear(in_features=240, out_features=240, bias=True)
            )
            (mlp): Sequential(
              (0): Linear(in_features=240, out_features=960, bias=True)
              (1): GELU(approximate='none')
              (2): Linear(in_features=960, out_features=240, bias=True)
              (3): Dropout(p=0.05, inplace=False)
            )
          )
        )
        (ln_f): LayerNorm((240,), eps=1e-05, elementwise_affine=True)
        (sigma_emb): Linear(in_features=1, out_features=240, bias=True)
        (action_emb): Linear(in_features=7, out_features=240, bias=True)
        (action_pred): Linear(in_features=240, out_features=7, bias=True)
      )
    )
  )
)

**************************************************

**************************************************
Warnings generated by robomimic have been duplicated here (from above) for convenience. Please check them carefully.
Warnings generated by robomimic have been duplicated here (from above) for convenience. Please check them carefully.
…
